checkpoint.pth (torch, 9250 bytes, 12 tensors)

fc1.weight f4 [64, 2]
000000 15 95 ce 3f 56 16 72 be d4 a7 55 40 21 50 ab bd
       1.6139246 -0.23641333 3.3383684 -0.08364893
000010 c9 bd 53 bf d4 6c 91 41 33 02 c2 3f 0f 10 fe 40
       -0.82711464 18.178139 1.5156921 7.9394603
000020 25 8b 83 40 5c 36 9a bd 98 6f 4f 40 f3 1a 93 3c
       4.1107354 -0.075298995 3.2411861 0.017957186
000030 a5 a4 ab 3f 5a fd 3b 3f 73 d4 3f 3f ff f8 c5 bd
       1.340962 0.7343346 0.74933547 -0.09666633
000040 80 12 e2 3f ed 61 10 bd 09 af e3 bf 7e ba c6 c0
       1.7661896 -0.03524964 -1.7787791 -6.210265
000050 41 88 dd bf 22 17 4c 3f cd e8 5a 40 97 0a a9 3d
       -1.7307206 0.797228 3.420459 0.08253973
000060 f7 40 90 3f cb 27 72 bc 56 1d 96 bf 3e 2c 0e 3f
       1.1269826 -0.014779995 -1.1727703 0.5553626
000070 3c c3 a4 3c a4 78 5c 3e f2 e2 47 40 9e 6c 63 3d
       0.020112626 0.21530396 3.1232266 0.055523507
000080 63 23 23 40 f5 9b 48 3e bb e9 67 40 98 66 ca bf
       2.5490348 0.19590743 3.6236408 -1.5812559
000090 ce 66 f9 3f 2c 91 11 c0 3e 3e fe 3f 1a 8e 18 c0
       1.9484499 -2.2744856 1.9862745 -2.3836732
0000a0 43 7f ce c0 e1 6e 36 40 18 34 31 bf 27 d3 a8 41
       -6.453035 2.8505175 -0.69220114 21.103102
0000b0 c6 81 24 c0 7f ef 9a 3f 29 68 b2 3e cb 5c 1d c1
       -2.5704207 1.2104338 0.34845093 -9.835155
0000c0 77 29 b4 c0 77 70 21 40 e6 74 c8 bf ca db 9e bf
       -5.6300616 2.5224893 -1.5660675 -1.2410824
0000d0 51 70 53 3f d2 51 81 3d 48 3d b4 3c 43 10 3e 3d
       0.82593256 0.06314434 0.022001877 0.046402227
0000e0 68 b0 12 3e 63 48 91 bd 1a 2c 76 40 c5 e0 d6 bf
       0.14325106 -0.07093885 3.8464417 -1.6787344
0000f0 3d e5 03 bf fc e0 07 40 13 3c 69 be ef 0f 57 bf
       -0.51521665 2.123107 -0.22776823 -0.8400869
000100 b4 66 ab 3e ed 36 ab 3c 87 35 9b c0 ff 9d 0e 40
       0.33476794 0.020900214 -4.850284 2.2283933
000110 1c dc e8 be 00 99 f4 3e c2 af d4 3f 87 45 b8 3d
       -0.4548043 0.4777298 1.6616137 0.08997636
000120 2d cb 93 40 a0 f6 0b c1 85 ed cc c0 bd 93 36 40
       4.6185517 -8.747711 -6.403994 2.8527672
000130 ae 9a 02 40 9f 6e 61 3d 7d c6 3e 40 48 09 ca bf
       2.040691 0.055037137 2.9808648 -1.5784082
000140 b5 b3 84 3e 98 c1 87 be cc b3 37 40 dc d6 9b bd
       0.25918356 -0.26514888 2.870349 -0.076093405
000150 f6 23 49 bf 43 11 e6 bf be ad 39 40 32 e3 b6 bd
       -0.785705 -1.7974018 2.9012294 -0.08930053
000160 c2 ae b3 40 18 f6 0e c1 16 cc 25 be b2 b8 0e 3e
       5.6150827 -8.9350815 -0.16191134 0.13937643
000170 e2 60 5d be 00 c7 b7 3d d1 93 a2 3f 0e 0d 81 bc
       -0.21618989 0.08973503 1.270136 -0.015753295
000180 4d b7 7a 40 a0 fa 17 be fe 90 4a c0 ef 22 25 40
       3.9174378 -0.148417 -3.1650996 2.5802572
000190 92 9d fd bd 94 38 ad 3e 83 c8 81 3f 9a 57 a2 3e
       -0.1238357 0.33832228 1.0139316 0.3170746
0001a0 d4 ef 14 40 84 9b 1a 3e f5 f7 a5 3f 89 72 12 3e
       2.327138 0.15098387 1.2966295 0.14301504
0001b0 25 0c 67 c0 79 dc d1 3f c1 25 c1 40 f7 46 fb c0
       -3.6101162 1.6395408 6.0358586 -7.8524127
0001c0 f3 8b 58 40 8c 8f 14 be 29 4a 17 bf 82 2e 45 c0
       3.3835418 -0.14507884 -0.59097534 -3.0809636
0001d0 8d 7d a9 be 9f 57 e4 bb b2 f1 80 40 6a 6c 21 be
       -0.331036 -0.006968453 4.029504 -0.15764013
0001e0 d2 f5 58 c0 5d bb 2b 40 3a 24 85 bf 51 76 49 c0
       -3.3900037 2.6833107 -1.040168 -3.1478465
0001f0 ba c0 48 40 e7 00 2c bf fd e5 a0 bf 28 00 9d bf
       3.136763 -0.67188877 -1.2570187 -1.2265673

fc1.bias f4 [64]
000000 91 2a b5 40 3a 34 b7 40 ad 1f 7e c1 d0 52 c7 c0
       5.661446 5.7251253 -15.882733 -6.228859
000010 8b c0 d2 40 ce 06 a5 40 64 e9 c3 40 69 7a c3 3f
       6.586004 5.1570807 6.12224 1.5271732
000020 0a d5 46 40 9b 04 a0 40 9c 9e 43 40 ff 3a b3 40
       3.1067529 5.000562 3.0565557 5.6009517
000030 1d 07 f7 3f e5 fe 05 40 7a 6d 46 c0 c4 8a 9e 40
       1.9299046 2.0936825 -3.100432 4.954439
000040 d5 45 85 40 6b a1 48 40 37 33 cb 40 79 a3 d5 40
       4.1647744 3.1348522 6.350002 6.676205
000050 53 71 33 41 98 b5 29 c1 4a 85 92 40 76 73 07 3f
       11.215167 -10.606834 4.5787706 0.52910554
000060 8c 66 1d 41 02 9c aa c0 4a fd df 3f dd 61 24 c0
       9.837536 -5.331544 1.7499173 -2.568473
000070 13 af 52 bf e1 f3 54 40 c9 a5 9a c0 2e 28 a6 3f
       -0.8229839 3.3273852 -4.8327374 1.2981012
000080 42 de 13 bf 5d ea 08 41 7b af 7a c0 4d 86 30 40
       -0.57761014 8.557218 -3.9169605 2.758197
000090 e1 20 64 c1 cd a5 32 41 ee e7 54 40 8c d0 dc 40
       -14.258027 11.165479 3.3266559 6.9004574
0000a0 39 88 c3 bf ae 53 96 40 8b db c7 40 10 31 a9 40
       -1.5275947 4.697715 6.2455497 5.287239
0000b0 3d 67 87 c1 e0 1a 13 c0 0c 19 15 bf 7b cb 11 40
       -16.92541 -2.2985153 -0.58241343 2.2780445
0000c0 e7 32 c7 40 26 43 e8 40 2d 4a d3 bf 95 fb 01 40
       6.2249637 7.258197 -1.6507012 2.0309803
0000d0 46 f5 6f 40 37 26 2c 40 a8 e7 ca 40 e8 67 84 c1
       3.7493453 2.6898324 6.3407784 -16.550735
0000e0 cc 9a ae 40 86 4a af 40 24 41 7b bf 71 62 d5 40
       5.456396 5.477847 -0.9814627 6.668267
0000f0 3a f2 f4 40 fa be c8 40 22 fd ba 40 f3 95 6e 40
       7.6545687 6.2733126 5.8434 3.7279022

fc2.weight f4 [2, 64]
000000 94 56 8c 40 1e 3d 15 3e b3 38 8a c1 95 cf 1c c0
       4.3855686 0.14574096 -17.277685 -2.4501698
000010 82 b4 ef 3f af 11 21 3f 51 62 96 40 b5 0b e9 be
       1.8726962 0.6291761 4.6995015 -0.45516744
000020 3f 8a 7e bf f4 b8 67 bf 72 31 a3 3f 77 4a 1a 40
       -0.99429697 -0.9051659 1.2749465 2.410795
000030 0d 61 e2 3d 67 df bb 3e fa e7 5a bf eb 92 31 be
       0.11053667 0.3669388 -0.8551022 -0.17341201
000040 4f 21 d0 bf fb 5b bf bf 12 39 9a 40 a7 ab a3 40
       -1.6260165 -1.4949945 4.8194666 5.1147037
000050 b2 be 87 40 e1 15 8b 41 e3 1d c8 3f 86 53 b3 c0
       4.242028 17.385683 1.5634121 -5.6039457
000060 58 02 3d 40 ec 50 eb bf 22 19 bc bf ca 6b 23 bf
       2.953268 -1.838407 -1.469517 -0.6383635
000070 35 a6 8a 3e 81 36 7d bf bd 8a b2 bf fe 5c ae 3f
       0.2707993 -0.9891129 -1.394859 1.3622129
000080 4b 2f ca be fc 30 3f 3f 9c 7e c5 be 52 17 d0 bf
       -0.39489207 0.7468412 -0.38573158 -1.6257117
000090 9f fe 7e 41 4e 31 7e 40 a6 cd 45 bc fa fc 91 40
       15.937163 3.9717593 -0.012072956 4.562131
0000a0 96 2c 15 bb 2c ac 87 be 5c 7f c7 40 e4 7f 5c 40
       -0.002276217 -0.26498544 6.234297 3.4453058
0000b0 cd da 0e c1 eb 87 16 bf 20 11 ab bb 43 61 6f bf
       -8.928418 -0.58801144 -0.0052205473 -0.93507785
0000c0 ee 55 4d 40 f9 6a 8d c0 d2 1a fe bd 50 85 e6 bf
       3.2083697 -4.419308 -0.12407459 -1.8009434
0000d0 40 f7 e5 bf 67 64 c7 bf e7 04 f4 3f e4 2a a7 c1
       -1.796608 -1.5577515 1.9063996 -20.895943
0000e0 25 2e 20 40 9e 7e b2 40 10 b0 2e 3e 71 e5 9d 3e
       2.5028164 5.577956 0.1705935 0.30839112
0000f0 ee f8 85 c0 20 49 d5 40 f4 ae 50 40 91 ee 87 40
       -4.186637 6.6651764 3.2606783 4.247872
000100 75 bb 91 40 b7 d8 c7 40 3d 4e eb c0 db 46 1c c1
       4.554133 6.2452044 -7.3533006 -9.767299
000110 9a 43 e5 40 8b e9 b5 40 3e 85 a1 40 98 29 e8 3f
       7.164502 5.6847587 5.047515 1.8137693
000120 0e e3 74 40 31 8a c0 40 ee d3 27 40 20 b0 b8 40
       3.8263583 6.016869 2.6223102 5.7714996
000130 92 89 0e 40 8e b8 d6 3f 88 e3 61 3e 94 97 b4 40
       2.2271466 1.6775072 0.22059453 5.643503
000140 3f 3f 9c 40 a7 20 d8 3f 6a d2 96 40 40 eb 9e 40
       4.8827205 1.6884965 4.7131853 4.966217
000150 83 0d 31 41 08 d4 38 c0 d2 f7 92 40 e2 f7 a0 40
       11.065799 -2.8879414 4.5927515 5.030259
000160 f6 cd 20 41 7f e8 47 bf 33 b2 1b 40 98 d9 f3 3e
       10.050283 -0.78089136 2.4327514 0.47626948
000170 10 cf fc 3f 3f 6a eb 3f 34 c0 f0 3d 2f 73 7e 3e
       1.975069 1.8391799 0.1175541 0.24848627
000180 da bf ff 3f 75 e7 0e 41 81 5d 8a bc a6 60 60 40
       1.9980423 8.931508 -0.01689029 3.505899
000190 83 15 27 3f 87 8b 30 41 72 9c 76 40 07 5f c2 40
       0.652672 11.034064 3.8532987 6.0741
0001a0 12 34 e0 3f 86 58 a8 40 ec e1 4d 40 f4 60 a0 40
       1.7515891 5.260806 3.2169142 5.011835
0001b0 d8 2b be c1 f5 31 47 3f b8 03 17 bd 3f 98 30 40
       -23.771408 0.77810603 -0.03686878 2.7592924
0001c0 0c 6b c9 40 09 e4 db 40 60 15 ce 3f 5a 7e 22 40
       6.2943172 6.8715863 1.6100273 2.538962
0001d0 e1 f1 8e 40 3d b0 55 40 7d 42 c6 40 fa 2f b1 be
       4.467026 3.3388817 6.1956162 -0.34606916
0001e0 34 b5 ae 40 dc d1 f8 3f bc 2e ea 3f 54 81 e7 40
       5.4596195 1.9439044 1.8295512 7.234537
0001f0 21 d5 f5 40 c2 c8 21 40 66 df a9 40 53 63 e2 3e
       7.6822667 2.5278783 5.3085203 0.44216403

fc2.bias f4 [2]
000000 0e 98 21 41 12 59 26 41
       10.099623 10.396746

exp_avg f4 [64, 2]
000000 3e 65 ae 3b 48 42 26 bb 15 2c bb bc 4f 19 36 bd
       0.0053221276 -0.0025369097 -0.022848168 -0.04445773
000010 29 94 43 bc 09 ee db bb c4 1d c1 3d a6 7d 2e be
       -0.01193718 -0.0067117256 0.094295055 -0.17040119
000020 2e f2 8e bc 4f 1f 20 bd 43 7b 95 bc 32 8e 17 bd
       -0.017449465 -0.03909236 -0.018247252 -0.037000842
000030 31 27 a6 3b 8f 04 81 bb 16 98 16 bc ba 3b 86 bc
       0.00507059 -0.003937311 -0.009191534 -0.016385902
000040 a1 47 a0 bc 85 90 0e bd 20 9c 0f 3f a0 01 c1 3d
       -0.019565405 -0.034805793 0.560976 0.09424138
000050 df 5a bc 3b a0 ff f6 3b b3 5c 1a bc e1 5c ce bc
       0.0057481374 0.007537797 -0.009421515 -0.025190772
000060 5d 91 00 bc 10 0f 7d bc 48 fc 99 3b 52 59 30 bb
       -0.007847157 -0.015445486 0.0046992637 -0.0026908708
000070 04 00 00 00 04 00 00 80 2b fa b5 bc b9 47 2d bd
       6e-45 -6e-45 -0.022214016 -0.04230473
000080 d9 8e db bc 79 23 40 bd b4 fe 4c bd ac ab 36 3e
       -0.026801514 -0.04690883 -0.05004759 0.17838925
000090 08 b8 e3 3b b8 86 2e ba 3f 16 f6 3b c4 f2 e9 b9
       0.0069494285 -0.0006657648 0.007509976 -0.00044622098
0000a0 66 be 63 3d b6 51 db bc 63 b8 18 bd 54 ef 24 3e
       0.0556015 -0.026772361 -0.03728522 0.16106921
0000b0 4b ef 7d 3c 64 5e 5d bb 41 15 b0 bd a4 b8 48 bc
       0.015498946 -0.0033778185 -0.08597804 -0.012251053
0000c0 a0 ca 1d ba 8a 02 0a 3d 04 00 00 00 04 00 00 00
       -0.0006019268 0.033693828 6e-45 6e-45
0000d0 2d 25 89 bc 0b 2f e5 bc 04 00 00 00 04 00 00 80
       -0.01674136 -0.027976533 6e-45 -6e-45
0000e0 04 00 00 80 04 00 00 80 70 7b 38 3b fb bd a9 3e
       -6e-45 -6e-45 0.0028149746 0.33152756
0000f0 04 00 00 80 04 00 00 80 8a b8 29 3c 2e 77 d1 bc
       -6e-45 -6e-45 0.010358939 -0.025569525
000100 04 00 00 00 04 00 00 80 4e 3e 4f 3c c4 28 61 bc
       6e-45 -6e-45 0.012649132 -0.013742629
000110 04 00 00 00 04 00 00 00 46 ee b0 bc e9 10 17 bd
       6e-45 6e-45 -0.021597993 -0.03688136
000120 ba 39 55 3b 28 12 b9 b7 ff bd 86 3c ea ad bf 3c
       0.0032535628 -2.2062173e-05 0.01644802 0.023398358
000130 f4 8b 6f bc 0e 8b e6 bc 78 7d fe 39 ce b2 4a bc
       -0.01462077 -0.028142478 0.00048540137 -0.012371732
000140 04 00 00 80 04 00 00 00 18 fc ad bc 17 7c 24 bd
       -6e-45 6e-45 -0.021238372 -0.040157404
000150 25 c8 a2 3c ec ba a4 3c 0c 32 a2 ba ba be 4b bc
       0.019870827 0.020108663 -0.0012374534 -0.0124356095
000160 90 8e af ba 60 49 8b bd 04 00 00 00 04 00 00 80
       -0.0013393927 -0.068011045 6e-45 -6e-45
000170 00 00 00 00 00 00 00 00 5f 85 79 bc a2 16 da bc
       0.0 0.0 -0.015229552 -0.02662212
000180 d4 35 ef bb f0 ed bf bc 9b c2 6e bd 44 2f 75 3c
       -0.007300118 -0.023428887 -0.05829106 0.014964882
000190 04 00 00 80 04 00 00 80 f1 43 0a 3e e1 d3 f5 3d
       -6e-45 -6e-45 0.1350248 0.12003303
0001a0 6a de d5 bc 72 9e 38 bd 06 e7 a8 bc 34 24 10 bd
       -0.026107032 -0.04507298 -0.020617973 -0.035190776
0001b0 cf 67 6c 3c b0 a1 d0 3a 13 d0 6c bb 38 5e 5a b7
       0.014429047 0.0015917327 -0.0036134764 -1.301575e-05
0001c0 c6 a5 fe bb 17 7f b6 bc 83 79 ae 3c a2 08 cb 3c
       -0.0077712266 -0.022277398 0.021298176 0.02478439
0001d0 04 00 00 80 04 00 00 80 b1 f1 d2 bc e3 f3 4e bd
       -6e-45 -6e-45 -0.025750013 -0.050525557
0001e0 c5 f3 0e bd 12 78 6f bc a7 3d ca 3c 1e 7a e6 3c
       -0.034900445 -0.014616029 0.024687601 0.028134402
0001f0 37 b8 58 bb 06 22 82 bc b6 6c 8e 3c a9 5f c2 3c
       -0.0033068785 -0.015885364 0.017385822 0.023727255

exp_avg_sq f4 [64, 2]
000000 49 a4 f3 3e 0b f6 bd 3e 9c 38 e8 3e 5a c4 c8 3e
       0.47586277 0.37101778 0.4535569 0.39212304
000010 21 6d 81 3e 53 cd 87 40 64 a5 7b 41 ba a2 21 41
       0.2527857 4.243814 15.727879 10.102228
000020 ec 28 33 3f eb 03 16 3f 6f 6d d0 3e 52 36 b3 3e
       0.69984317 0.5859973 0.4070849 0.3500238
000030 af df 10 3f 1c db e1 3e 17 e8 6b 3d ec a8 50 3d
       0.56591314 0.4411248 0.057594385 0.050942346
000040 85 f2 1f 3e d2 18 11 3e 99 35 6b 41 c7 f4 bd 40
       0.15619858 0.14169624 14.700585 5.93613
000050 49 c8 ce 3d 6a d4 0a 3e 51 ba 03 3f 70 a8 d8 3e
       0.10096795 0.13557592 0.5145617 0.42316008
000060 9d 6b b4 3d c1 df 9c 3d 03 35 45 3d 50 87 7e 3d
       0.08809588 0.07659865 0.04814626 0.062140763
000070 90 46 cf 3a 28 fd 73 3a 40 51 b8 3e bc 6a a1 3e
       0.0015813876 0.00093074376 0.3599949 0.31526744
000080 c5 d0 c5 3e 56 7f b9 3e 8e 5e dc 40 db 96 81 40
       0.3863584 0.36229962 6.8865423 4.049665
000090 03 0f 07 3f 14 14 d1 3e 14 98 15 3f 2d 60 e7 3e
       0.5275728 0.4083563 0.5843518 0.45190564
0000a0 78 30 a7 3f 8b 10 dc 3f 02 cf 89 3e d0 90 12 40
       1.3061666 1.7192549 0.26915747 2.2900887
0000b0 42 9a 77 3e 81 c1 a1 3e 72 3b 77 3f e1 37 c4 3d
       0.24179938 0.31592944 0.9657508 0.095809706
0000c0 a3 71 83 3f 19 8f ab 3f a8 eb b0 3a f0 a6 19 3a
       1.0269054 1.3403045 0.0013497965 0.00058613624
0000d0 4a 24 86 3d c5 0c 7f 3d 56 f1 c0 3a 8c 89 8b 3a
       0.0654989 0.062268037 0.0014720361 0.001064585
0000e0 0c 8a 49 3a 82 d1 ba 3a 93 49 08 41 34 52 9f 40
       0.0007688112 0.0014253112 8.517962 4.9787846
0000f0 d2 0c e6 39 16 d0 b3 3a c8 6d 12 3d ec 05 41 3d
       0.0004387857 0.0013718631 0.035749227 0.04712479
000100 5c bb 0f 3b 41 1d a3 3a c4 31 37 3f 5d ba 6e 3f
       0.0021931743 0.0012444631 0.7156031 0.9325312
000110 09 47 e2 3a b3 6f 02 3a e1 1e ee 3d 38 ea dd 3d
       0.0017263602 0.0004975751 0.116269834 0.10835689
000120 de 6a db 3d 59 2a 04 3e 11 b1 a3 3f d9 bb d7 3f
       0.10713743 0.1290678 1.2788411 1.6854202
000130 71 bb 41 3e 0f bd 29 3e c7 1d 37 3f 29 8a 11 3f
       0.1891916 0.16576026 0.7152981 0.5685144
000140 f2 55 4e 3a 6b 5e a7 3a 04 d6 9f 3e 74 8a 8b 3e
       0.0007871083 0.0012769228 0.31217968 0.2725407
000150 4f 60 da 3e c6 e4 a1 3e 53 f4 f2 3e f5 da c1 3e
       0.42651603 0.31619853 0.4745203 0.37862363
000160 e6 8a da 3e 41 bb 22 3f d3 50 c0 3a 20 ce 79 3a
       0.42684096 0.63566977 0.0014672525 0.0009529311
000170 00 00 00 00 00 00 00 00 03 e5 ba 3d 8c 41 a5 3d
       0.0 0.0 0.09125712 0.08069143
000180 24 3a 25 3f 18 83 06 3f ca 86 93 3e 5a c2 a4 3e
       0.6454184 0.52543783 0.28813773 0.32179528
000190 22 46 4b 3a 71 2b d8 3a 37 62 bf 3d 3a ba bb 3d
       0.0007754286 0.0016492439 0.09344905 0.09166379
0001a0 50 95 a9 3e fc 38 9f 3e 0c 14 dd 3d 10 8c cc 3d
       0.3312173 0.31098163 0.10794839 0.09987652
0001b0 60 2e ce 3e e0 fa 07 3f 4d 37 1b 3e b3 58 10 3e
       0.40269756 0.5311718 0.15157814 0.14096336
0001c0 dd b3 f3 3e 72 9f c7 3e e4 a8 83 3e 42 0b 3e 3e
       0.47598162 0.38988835 0.2571479 0.18558982
0001d0 aa f9 53 3a fc e2 ee 3a b9 7b 1b 3f a9 07 06 3f
       0.0008086214 0.0018225606 0.6073566 0.5235544
0001e0 26 ce c2 3e be 6e dd 3e 12 b5 be 3e 76 46 8a 3e
       0.38047904 0.43248552 0.3724752 0.27006882
0001f0 61 32 01 3f 25 28 cf 3e 69 9a ce 3d 75 18 95 3d
       0.504675 0.40460315 0.10088045 0.072800554

exp_avg f4 [64]
000000 ae 98 7b 3c a0 15 c6 3c c1 75 89 bc e8 c9 e5 3d
       0.015356226 0.024180233 -0.016779782 0.11220151
000010 0b cf db 3c 8e 24 b2 3c 22 22 8c 3c 75 c9 ee 3b
       0.026832124 0.021745946 0.01710612 0.007287199
000020 a6 2a 7c 3c 88 29 12 be cc f3 fc ba c6 23 ad 3c
       0.015391028 -0.14273655 -0.0019298731 0.021135222
000030 e7 c4 0c 3c 66 62 01 3b 04 00 00 00 61 53 b4 3c
       0.008591867 0.0019742488 6e-45 0.022012414
000040 3d 73 a2 3c 01 cf 12 3e f0 f9 80 3c f3 bc 87 3c
       0.01983034 0.14336778 0.01574418 0.01656959
000050 cb c4 d9 3c 5c e9 93 3e 44 7d a4 3b 3a 52 23 3d
       0.026583096 0.28888977 0.0050198156 0.03987334
000060 8a 31 98 bc 04 00 00 00 cb 9f 27 3c 04 00 00 00
       -0.01857831 6e-45 0.010230969 6e-45
000070 04 00 00 00 a4 78 24 3e 04 00 00 00 bf 59 b5 bc
       6e-45 0.16061646 6e-45 -0.02213752
000080 04 00 00 00 70 ea a8 3b 04 00 00 00 27 46 6d 3c
       6e-45 0.0051549003 6e-45 0.014482058
000090 4f 8a 3d 3a e4 36 07 bc 92 52 75 3c 5e 64 ad 3c
       0.00072303874 -0.008252833 0.0149733 0.021166023
0000a0 04 00 00 00 3d 8d a8 3c fa 66 16 3c b2 75 90 3c
       6e-45 0.02057516 0.009179825 0.017634246
0000b0 bd 24 4e 3d 04 00 00 00 00 00 00 00 9c be 37 3c
       0.050328005 6e-45 0.0 0.011214878
0000c0 fe 4b ba 3c 7a 3e 0a bd 04 00 00 00 59 01 ba bd
       0.022741314 -0.03375099 6e-45 -0.09082288
0000d0 d7 f6 95 3c 36 0f 62 3c d8 32 ec 3a e8 b6 86 ba
       0.018306179 0.013797572 0.0018020524 -0.0010277899
0000e0 5c d1 a2 3c ca 01 96 3b 04 00 00 00 86 d9 e4 3c
       0.019875221 0.00457785 6e-45 0.027935755
0000f0 a0 e8 5d bc b4 97 cd 3b 2b b5 9a 3c c7 18 1b bb
       -0.013544232 0.006274188 0.018885216 -0.0023665891

exp_avg_sq f4 [64]
000000 1f e9 18 40 da 54 cf 3f c2 c5 2b 40 5a 80 3c 41
       2.3892286 1.619777 2.6839452 11.781336
000010 dd d4 33 40 03 05 c3 3f 39 e1 34 40 ae dd 4b 3e
       2.8098671 1.5235904 2.8262465 0.19908783
000020 61 37 fe 3e e0 a7 87 41 8e 36 08 3f 89 9b 0d 40
       0.49651626 16.95697 0.53208244 2.212618
000030 eb 8a ad 3e d5 9a 67 3e 08 8e 3e 3b 4b 4b a1 3f
       0.33895048 0.22617657 0.0029076356 1.2601103
000040 ca 16 37 3f 12 02 99 40 0f 53 2a 40 74 03 3d 40
       0.7151915 4.7815027 2.6613195 2.9533358
000050 b0 b3 d1 40 fd 4d b9 40 c2 da 97 3f d0 a3 07 3f
       6.5531845 5.79077 1.1863635 0.52984333
000060 46 53 9d 40 88 4f 02 3b 14 38 3c 3e d8 1f 49 3b
       4.916415 0.001988383 0.18380767 0.0030689146
000070 8d b9 57 3b 13 08 c0 40 fc e1 04 3b fb 6c 4d 3e
       0.0032916993 6.0009856 0.0020276299 0.20061104
000080 b7 6a 9a 3b b4 01 43 40 2d 8d 24 3b 6e 06 a7 3e
       0.0047124284 3.046979 0.0025108561 0.32622093
000090 9b 42 90 3d 75 0b cb 40 e0 eb 2f 3f 9a e9 59 40
       0.07043954 6.3451486 0.6871929 3.404883
0000a0 14 b4 3b 3b c6 49 8a 3f ef 3d 1f 40 56 aa 0e 40
       0.002864127 1.0803764 2.4881551 2.2291465
0000b0 b3 7f a8 3e dc 55 46 3b 00 00 00 00 e1 04 90 3e
       0.32909927 0.0030263579 0.0 0.28128722
0000c0 e6 bf 37 40 fc ab 2b 3f 43 0f 64 3b 27 a1 27 3e
       2.8710876 0.670593 0.0034799136 0.16370068
0000d0 dd 0c 11 3f cc 9d 9c 3e 9b fe f8 3f a9 0a a6 3d
       0.5666025 0.3058914 1.94527 0.08107502
0000e0 5d e7 04 40 4e 75 ca 3f 13 98 7d 3b 3d e7 0b 40
       2.0766213 1.5817049 0.003869538 2.1859887
0000f0 e5 55 78 3f 03 c7 13 40 95 87 13 40 fd 9c 32 3f
       0.97006065 2.3090217 2.3051503 0.69770795

exp_avg f4 [2, 64]
000000 ad cb 6d 3b 0b 7a 5d 3c 7b b8 13 3c e0 82 0f 3b
       0.003628473 0.013517867 0.009016152 0.0021898076
000010 7e f9 8b 3c ef e0 65 3c 80 85 0f 3c 98 a1 1a 3b
       0.01708674 0.014030679 0.008759856 0.0023594853
000020 f9 fc ea 3b b9 36 da bc dc 9d 95 bb 18 80 78 3c
       0.00717127 -0.026637422 -0.0045659374 0.015167259
000030 b9 9f 98 3b 9f b8 44 bb 04 00 00 80 e8 01 62 3c
       0.0046577123 -0.003001727 -6e-45 0.0137944
000040 2f 9e 48 3c 17 ec f1 3b a3 93 17 bc 0c b9 23 bc
       0.012244745 0.0073828804 -0.009251508 -0.009992849
000050 24 95 91 bc 23 aa 97 3c c0 ed d8 bb 3f f2 c1 bb
       -0.017771311 0.018513745 -0.006620139 -0.0059187706
000060 10 79 7a bc 04 00 00 00 ea b2 75 3b 04 00 00 80
       -0.015287653 6e-45 0.0037490674 -6e-45
000070 04 00 00 80 4e f1 ff 3b 04 00 00 80 b7 e1 43 bc
       -6e-45 0.007810748 -6e-45 -0.01195567
000080 04 00 00 00 da 40 52 bc 04 00 00 80 f6 17 fc 3b
       6e-45 -0.012832845 -6e-45 0.007693286
000090 73 12 05 3a 34 47 8f bc 86 06 15 3c 79 74 22 3a
       0.00050762965 -0.017490007 0.009095794 0.00061971653
0000a0 04 00 00 80 9b e6 3f 3c 4e 18 a3 bc 67 e1 3b 3c
       -6e-45 0.0117126955 -0.01990905 0.011467314
0000b0 07 13 35 b8 04 00 00 80 00 00 00 00 e5 62 aa 3b
       -4.3171483e-05 -6e-45 0.0 0.0051997774
0000c0 26 3c 81 3c 24 87 c3 ba 04 00 00 00 d6 c9 d0 3b
       0.015775751 -0.0014917594 6e-45 0.006371717
0000d0 f8 6b 34 3c 78 fb cb 3b 4a 66 1e bc ed 43 d3 39
       0.01101207 0.006225046 -0.009667942 0.00040295665
0000e0 df 9c 5c 3c 6e fa e0 bc 04 00 00 00 ea 7b 83 3c
       0.013465135 -0.027463164 6e-45 0.016050298
0000f0 13 da 08 bb 42 2c fb bc 58 33 08 3c 14 4b 8b bc
       -0.0020881935 -0.030660752 0.008313023 -0.017003573
000100 69 4b 90 3c 2c b8 27 3c a5 c1 2c bd e9 89 47 3e
       0.017614083 0.010236781 -0.04217686 0.19486202
000110 a0 af 2d 3c 37 e7 fa 3b de 00 5b 3c b5 8c 79 3b
       0.010600954 0.0076569575 0.013366906 0.0038078253
000120 53 4f b9 3b fa 85 c5 be ff b7 c8 ba c0 e1 06 3c
       0.005655208 -0.38578779 -0.0015313624 0.008232534
000130 e9 70 5b 3b a8 58 8a ba 04 00 00 00 ff c4 e6 3b
       0.0033484048 -0.0010554986 6e-45 0.0070425267
000140 c2 df a7 3b 80 ba c9 ba 1b b6 0a 3d cf 92 12 3d
       0.0051231096 -0.0015390664 0.033865076 0.03578454
000150 3f 58 b6 bb ae ce 5d bc 28 18 17 bb 12 00 80 3c
       -0.005564719 -0.013538046 -0.002305517 0.015625034
000160 0d 71 a0 bb 04 00 00 00 10 24 53 3b 04 00 00 00
       -0.004896289 6e-45 0.003221754 6e-45
000170 04 00 00 00 34 36 eb ba 04 00 00 00 58 ed db 3c
       6e-45 -0.0017945231 6e-45 0.026846573
000180 04 00 00 00 b9 6c 8c bb 04 00 00 00 d8 12 78 3b
       6e-45 -0.0042854217 6e-45 0.0037853029
000190 79 b6 9f bb d9 df b5 bb 2b bb 9d 3b 52 77 dd 3c
       -0.0048740474 -0.0055503664 0.004813572 0.027034435
0001a0 04 00 00 00 c9 68 02 3c 94 20 25 3d ac 8c 27 3c
       6e-45 0.007959553 0.040314272 0.01022641
0001b0 bf b2 2d 3c 04 00 00 00 00 00 00 00 00 99 88 3b
       0.010601698 6e-45 0.0 0.0041686296
0001c0 4d 5e 2b 3c 82 93 87 bb 04 00 00 00 93 88 df 3a
       0.010459495 -0.0041374573 6e-45 0.0017054252
0001d0 dd 2f 99 3b fc de 93 3b 58 74 4f bb 25 b8 2f bc
       0.004674895 0.004512666 -0.003165504 -0.010725056
0001e0 c8 1c 1b 3c 63 2e 3c 3d 04 00 00 00 9c c6 41 3c
       0.009467311 0.045942675 6e-45 0.011827137
0001f0 44 10 8e bb 29 c8 51 3d 9b ef 80 3c 04 ad e6 3c
       -0.004335435 0.05121628 0.015739253 0.028158672

exp_avg_sq f4 [2, 64]
000000 92 ad 49 3f 22 75 67 3f 44 ac 21 3e f4 08 0e 3d
       0.7878047 0.90413105 0.1578837 0.034676507
000010 ba 82 9b 3f 65 48 42 3f 5e 1b 6e 3f 14 7c c0 3d
       1.214927 0.75891715 0.9301051 0.09398666
000020 58 7a 94 3e 38 09 d7 3d 8b fa 41 3e 57 02 62 3f
       0.2899959 0.10499805 0.18943231 0.8828482
000030 c4 16 0a 3e dc c6 d9 3d 8b 2d e4 3a fd be 33 3f
       0.13485247 0.106336325 0.0017408592 0.702133
000040 82 3d 01 3f dc dc c3 3e f4 c0 67 3f d8 d5 7d 3f
       0.5048448 0.3825444 0.905288 0.99154425
000050 9d c0 10 40 34 9a 49 3f 73 bc c8 3e 08 4a db 3e
       2.2617562 0.7875092 0.39206275 0.4282992
000060 90 3c df 3f ed 56 8d 3a 00 f4 e5 3d 19 c5 f1 3a
       1.7440357 0.0010783352 0.1122818 0.001844558
000070 7c ed 52 3b db b3 cf 3e 73 d8 c1 3a a1 8a 7f 3d
       0.0032185009 0.40566906 0.0014789238 0.062388066
000080 05 6d 61 3b ab 91 ab 3f ea 33 bc 3a c2 24 7a 3e
       0.0034397256 1.3403829 0.0014358733 0.24428084
000090 f3 f8 5c 3b d6 81 0f 40 f8 b3 aa 3e 3e dd 93 3f
       0.0033717721 2.2422996 0.3334043 1.1551893
0000a0 42 e5 38 3b 12 4c 21 3f de 8d 3e 3f e3 5e 46 3f
       0.002821282 0.630067 0.7443522 0.77488536
0000b0 55 56 09 3b ba 98 02 3b 00 00 00 00 5e 57 33 3e
       0.0020956 0.0019927458 0.0 0.17513797
0000c0 d1 2e 8a 3f c3 41 89 3f d7 89 32 3b 7b 4f 1b 3e
       1.0795537 1.0723194 0.0027242803 0.15167038
0000d0 f3 75 d7 3e 35 a4 62 3e d2 6f 3b 3f cf a8 f8 3a
       0.42082176 0.22132953 0.732175 0.0018971207
0000e0 5b fb 56 3f f4 82 08 3f cb 1c 6e 3b 4b 48 9d 3f
       0.8397729 0.5332482 0.003633308 1.2287687
0000f0 dc 9f 96 3f 6c 32 2d 3f 10 bc 66 3f 6b 3e 7e 3e
       1.1767535 0.6765506 0.9013071 0.24828498
000100 17 a7 c0 3f ef a7 f2 3f e7 ff a9 3e 4c 16 e3 3d
       1.5050992 1.8957499 0.3320305 0.11088237
000110 36 f1 22 40 f8 42 cb 3f 27 63 e2 3f 62 ae 46 3e
       2.5459723 1.5879812 1.7686509 0.1940246
000120 14 84 19 3f 30 fc e1 3e 4a 14 a5 3e be 0e ec 3f
       0.5996716 0.44137716 0.32242042 1.8441999
000130 19 2d 8e 3e c3 59 37 3e 5c 18 68 3b 73 7e bc 3f
       0.27768782 0.17905335 0.003541491 1.4726089
000140 3a b8 87 3f 50 23 54 3f 13 a5 e0 3f 13 ff f5 3f
       1.0603096 0.8286638 1.7550377 1.9218467
000150 ba 88 78 40 07 d5 d0 3f c7 5c 2b 3f 15 0f 5a 3f
       3.8833451 1.6315011 0.6693844 0.85179263
000160 c1 9e 3f 40 68 d4 04 3b 35 4f 67 3e 57 54 74 3b
       2.9940646 0.0020268206 0.22588809 0.0037281716
000170 45 82 85 3b 07 c9 60 3f 81 db 06 3b 40 20 f3 3d
       0.004074367 0.87806743 0.0020577612 0.118713856
000180 dc 03 db 3b ee f0 13 40 79 4b 2f 3b f9 66 02 3f
       0.0066838097 2.3115802 0.0026747866 0.50938374
000190 a1 96 a6 3b f2 6a 76 40 2b 9f 31 3f 2c b1 11 40
       0.0050838743 3.8502774 0.69383496 2.2764387
0001a0 ee 09 6b 3b a8 5d a9 3f 2b 0a aa 3f de a3 c7 3f
       0.0035864073 1.3231707 1.3284353 1.5596883
0001b0 37 ba 45 3b f1 a1 85 3b 00 00 00 00 83 26 ba 3e
       0.0030170807 0.004078143 0.0 0.36357507
0001c0 cd cd 0d 40 40 63 f2 3f c7 6c 7c 3b a2 7f 9f 3e
       2.215686 1.8936539 0.0038516985 0.31152064
0001d0 05 3c 62 3f 6f 76 ea 3e ab d9 a0 3f 0b 39 2e 3b
       0.8837283 0.45793483 1.2566427 0.0026584293
0001e0 eb 65 de 3f f4 0e 7d 3f 36 5d a1 3b a2 84 25 40
       1.7374853 0.9885094 0.0049244417 2.5862203
0001f0 39 00 05 40 9d 03 9d 3f f5 62 e8 3f ab 86 dc 3e
       2.0781386 1.2266728 1.8155199 0.43071494

exp_avg f4 [2]
000000 0f 73 0b ba 6e 8e 7e 3b
       -0.0005319574 0.003884222

exp_avg_sq f4 [2]
000000 9c ab b4 3c 58 83 2b 3d
       0.022054486 0.041873306
